data/3_class_bias.npy (npy, 504128 bytes, 1 tensors)

array f8 [10, 3, 21, 100]
000000 8c 29 40 93 0e 76 d8 bf 9c 35 f0 6f c6 10 e4 bf
       -0.38220562343544695 -0.6270477472586893
000010 80 5a 87 75 bc 24 8f 3f 08 83 49 2b 47 15 ce 3f
       0.015206787430469548 0.23502435315733572
000020 88 8a a7 f0 c0 f5 d4 3f 6c 1f ef fc 1b 2e db 3f
       0.3274996137753665 0.424689290052348
000030 58 ad 73 14 a4 64 e6 bf 74 0e da 95 92 e1 df 3f
       -0.6997852706385101 0.4981428588291472
000040 9e 9c 5a 8a 40 a4 e1 3f 8c b0 f4 52 03 d7 dc bf
       0.5513003065324431 -0.45062335110811413
000050 7a b0 3e 61 b2 b6 e3 bf 4e c6 5d fd ff 02 e6 3f
       -0.6160518550218648 0.6878662060318648
000060 02 60 ca 79 96 40 ee bf 34 7f 48 51 bc ce ea bf
       -0.9453842524262657 -0.8377362811624836
000070 16 1c 7a 8a 8c 81 ed bf 50 fc 28 d4 af 80 b7 3f
       -0.9220640854481441 0.09180735521020833
000080 a8 80 ab 8b ec e1 c2 bf 08 da 81 ef c8 77 ec 3f
       -0.14751965350933927 0.8896221807361266
000090 c0 d9 e6 28 0f cd b4 3f 80 b8 37 f0 74 54 90 3f
       0.08125395535066726 0.015947177087519027
0000a0 00 7b 62 6d 6d 9c 7b bf 88 54 9e 60 b1 6d e4 bf
       -0.006740977716758634 -0.6383902442054401
0000b0 90 e9 23 dd 00 cd dd bf 38 3b e2 46 ae 17 dd bf
       -0.46563741298418737 -0.45457035944211865
0000c0 82 5e e5 57 43 5a ef bf 74 e8 f1 52 f8 92 e7 3f
       -0.979768439933608 0.7366906757372491
0000d0 32 75 8e c9 89 4c eb 3f 2e 94 7a 6a e5 36 ea 3f
       0.8530930458688657 0.8192011909164927
0000e0 5e a0 46 36 3b 4f e6 bf a0 a5 f1 73 fc 3c d3 3f
       -0.697171789176547 0.30059729883813624
0000f0 30 83 72 b6 be eb be 3f ec f5 95 c2 dc 19 ec bf
       0.12078468279152044 -0.8781570244315708
000100 f8 1a 94 60 70 65 dd 3f a8 16 ab ee e5 18 ca bf
       0.45931634360788065 -0.20388483194090168
000110 b8 62 3a 42 8c 6d d4 3f 90 8e 95 83 eb d2 ea 3f
       0.3191862723120198 0.8382470674518618
000120 c4 b6 88 0d b2 6a d7 bf 30 bc cf 38 6a 0a e9 3f
       -0.3658871776741359 0.7825213536833697
000130 3e 72 19 dc e6 9a e9 3f cc 9c bc 62 97 cd ea 3f
       0.8001589106384654 0.8375966003849498
000140 d2 37 3c 12 61 9a ef 3f 40 7e 2b b7 4f 7b b2 3f
       0.9875951152951024 0.07219408246918935
000150 dc ee 72 0d 2f c3 d4 bf 00 cf a9 94 85 60 b8 bf
       -0.3244130736672852 -0.0952228057811304
000160 92 58 f2 01 07 2f e4 bf e0 96 71 ce 18 c4 a1 3f
       -0.6307406461735516 0.03469922561707306
000170 a0 1e 97 e8 33 f2 e6 bf c8 61 c7 1a 94 7c d3 bf
       -0.717065767553283 -0.3044786702644413
000180 ba 85 46 1d 16 f3 e2 3f 1c 72 e1 04 2a 38 d7 bf
       0.5921736308848076 -0.3628029868757794
000190 38 5e 2e 61 df 96 c0 3f c0 14 d5 2e f9 30 a0 bf
       0.12960426564380767 -0.031623637167777385
0001a0 08 19 81 36 61 a5 df bf 40 7d 44 ce 1b 65 e5 bf
       -0.49446897814449686 -0.6685923603689972
0001b0 ee 1e 33 24 54 6d e0 bf 50 bc 83 7b 1f 33 ba 3f
       -0.5133457858109673 0.10234257474415753
0001c0 32 8c 44 3c 0c d5 e1 bf 78 2c 4e cd 2f b4 d8 bf
       -0.5572568108658571 -0.38599772500373986
0001d0 fc 65 25 f4 86 a1 d1 bf 00 a0 63 c5 71 10 e3 bf
       -0.2754838356246123 -0.5957573752648386
0001e0 b2 28 fb 65 92 c5 e0 3f 40 98 e2 a4 18 74 b8 bf
       0.5241176597421797 -0.09552148843303687
0001f0 5c dd c0 3f ab 19 e4 bf d0 25 1b 10 64 ab b5 3f
       -0.6281334157164724 0.08464646714414603
000200 b8 6a 64 25 28 96 eb bf 1c eb 57 a6 89 73 d5 3f
       -0.8620796900098275 0.33517686123347956
000210 0c 14 9d a0 63 af ec bf 3c 0d 90 33 6a 17 de bf
       -0.8964098107322811 -0.4701791289846431
000220 94 65 29 79 1b c2 ef 3f 8c 25 86 27 e2 9b e7 3f
       0.9924447409095358 0.7377787372544602
000230 08 c0 5c 77 f4 0f ca bf 24 7e 62 ee 26 78 e1 3f
       -0.20361190632093007 0.5459170013381862
000240 ba 79 97 78 06 60 eb 3f 30 2d e8 aa 2b c5 d0 3f
       0.8554718356424964 0.2620343369496423
000250 7c f4 6d c0 84 b4 e9 bf 7c 42 48 52 9a e7 e5 3f
       -0.8032859571827795 0.6845218283725241
000260 78 1e 7f 45 6d fd ca 3f 60 a7 8d ca 78 86 b1 bf
       0.210858973440043 -0.06845812745237145
000270 20 14 49 9d 9d 28 ee 3f a0 e3 80 31 20 8e a6 bf
       0.9424579689008432 -0.04405308346071668
000280 f4 6b f2 c4 00 52 dd bf 18 78 93 72 b8 1c c4 bf
       -0.4581300662336496 -0.15712648005040886
000290 ba 4a 2d e4 ff a6 e5 3f 50 e0 a1 a0 d0 e0 c7 3f
       0.6766356903629778 0.18654830783248366
0002a0 6e 30 00 6e 9e c3 e9 3f 88 03 5a 63 c3 ba de 3f
       0.805129256100839 0.48014912321382797
0002b0 1c 97 09 89 0b ec de 3f 00 92 79 b1 1e 90 e6 3f
       0.48315704710545204 0.705092760687478
0002c0 80 3f 92 3c 06 8b 9e 3f 94 a6 e7 53 d0 9e d6 3f
       0.02982721085260165 0.35344322389446714
0002d0 18 7c 7c 86 68 ac df 3f dc 63 34 63 9c 94 e0 bf
       0.4948979676573244 -0.5181409776297374
0002e0 00 c6 c6 af 31 ea 96 bf 00 57 cd e4 8f ea a3 bf
       -0.022377754548591255 -0.03889894168848507
0002f0 a0 19 32 b5 69 75 e6 bf cc d7 a3 a4 1b 0a e9 bf
       -0.7018326319674095 -0.7824838843941904
000300 e0 05 25 7c 97 82 ac bf a4 d3 67 79 76 00 d5 3f
       -0.05568383589207904 0.3281532464600849
000310 20 27 aa a9 81 bf bb 3f a8 b6 b4 cb 41 56 ef 3f
       0.1083909072132454 0.9792794207221123
000320 b4 55 0f 17 b0 9d df bf 8a 0f d1 11 df d2 ee 3f
       -0.4939995026773787 0.9632411334973636
000330 4c ed 6a 78 c7 fd e4 3f a8 c2 0c 9e c7 74 dc bf
       0.6559789039523962 -0.44462767061763
000340 72 3b c7 fc a5 f3 e3 bf 80 29 10 f8 87 d5 d7 3f
       -0.6234922349047862 0.3724079058162246
000350 9c fb f9 22 1b 93 da 3f c0 53 a1 5d d2 e9 b6 3f
       0.4152286378447856 0.08950533662694138
000360 96 5c 94 83 9a 9c ee 3f 34 e3 39 b7 28 79 e1 bf
       0.956616646758351 -0.5460399225840775
000370 78 34 5c 3f 14 c6 ee 3f d4 40 27 d9 69 5e eb bf
       0.9616795766356878 -0.8552750817562136
000380 4c f8 80 8e df d8 e6 3f 60 f9 ff 6b 7e a4 df bf
       0.7139737876202701 -0.4944149069487107
000390 5a 2d b5 7c 41 0f e2 bf e0 b0 7a b0 7e 40 c3 3f
       -0.564362281389019 0.15040572755004344
0003a0 b0 82 eb 58 2b ac bf bf 40 36 2b a0 29 55 cd 3f
       -0.12372084542176753 0.22916145630590457
0003b0 88 a7 71 9d f6 f4 d0 3f e4 59 4e 04 3c 39 eb 3f
       0.26495137572657557 0.8507366260626523
0003c0 78 68 8d cd c0 9a cd bf 3c 94 16 a9 29 8a dc bf
       -0.23128519093262745 -0.44593278419990035
0003d0 f0 ee 48 e5 10 b8 ee 3f 32 ec 9a a0 ae c1 ec bf
       0.9599689939709304 -0.8986428391284618
0003e0 fc 33 bc 41 78 df d7 3f ae 9b 24 73 fc 70 e7 bf
       0.3730145112938883 -0.7325422524344185
0003f0 90 26 cb 51 9f c9 c9 3f f8 1a a7 05 d9 1a c9 3f
       0.2014655255682567 0.1961318280793518
000400 44 b3 46 2a 9c 33 da 3f d2 e4 74 97 c8 a1 e4 3f
       0.409400025639844 0.6447489698540727
000410 80 08 3e 94 93 36 d7 3f 4c 53 5c b2 b3 70 e1 3f
       0.36270608403004445 0.5450075610739105
000420 ce 29 4b 8f af 51 ea bf fa 5f 52 81 2a 0a e5 3f
       -0.8224714087203269 0.6574909711662251
000430 38 87 f0 c1 49 ad dd bf 5c 1c 55 28 ab 37 e3 3f
       -0.4637016672078178 0.6005454814666211
000440 02 66 5f b8 81 f3 e8 bf 18 b5 d2 0e 60 6b dd bf
       -0.7797249413517309 -0.45967866370740884
000450 34 13 4e f0 d8 83 ec bf 70 fd 07 c1 00 5d c4 bf
       -0.8910946553665782 -0.15908822465278716
000460 58 07 f1 f2 58 b6 d8 3f b4 17 fc a3 50 ef e4 3f
       0.38612960552938125 0.6542132571055306
000470 86 11 06 72 80 3f eb bf ac 52 b9 14 e7 3b df 3f
       -0.8515016772294508 0.48803116821117487
000480 04 51 39 b9 6e 09 e1 bf 16 00 c0 74 3a df e4 bf
       -0.5324014299062871 -0.6522495537064994
000490 bc 5f 3a 99 10 ad d7 3f f0 b2 65 8c cd 04 c6 3f
       0.3699380394332328 0.1720215735944275
0004a0 c8 4a 63 ac ab e5 dd bf 5e 1f a9 f8 2b 8a eb 3f
       -0.4671429809069818 0.8606166702893281
0004b0 b2 b2 65 e4 ba 39 ef bf 30 bd 85 ba b7 c0 b3 bf
       -0.9757971249469704 -0.07715938857812854
0004c0 28 6f 39 f1 44 88 e7 bf 20 1d ac 62 c0 82 a4 bf
       -0.7353844367421276 -0.04006005482193076
0004d0 fc bb 5a 57 4f ea d9 bf 70 d1 0b 1d 68 0d d8 3f
       -0.4049261429854025 0.3758182796148253
0004e0 58 5c 6a e7 6b 78 cf 3f f8 8f 2b 65 0a a0 da bf
       0.24586247253020832 -0.41601810340785006
0004f0 d0 ca ad 9d b2 1d e1 bf e2 bb c4 c9 d7 97 e7 bf
       -0.5348752097764535 -0.7372855129996163
000500 5c 4f aa 17 20 28 e8 3f 78 d7 8d fe a2 c6 e0 3f
       0.7548981153690693 0.5242476436385308
000510 18 00 9e 0d 47 da cf bf 60 2e ef c5 48 bc d2 bf
       -0.24884880223180583 -0.2927419598533785
000520 b8 10 4c 7e 9b bf c6 3f b0 04 35 ef bf 44 e5 bf
       0.17772239367343956 -0.6646423027051664
000530 c0 79 20 22 94 3a d6 3f 44 bd 90 02 14 f4 de bf
       0.34732535679532006 -0.48364734888578576
000540 40 2f 67 15 a9 c3 98 bf 5c a7 ed 69 e9 24 eb bf
       -0.02418388550886097 -0.8482558316147606
000550 4e dc 25 7a 07 59 e1 bf 10 53 09 bc c6 9b cc 3f
       -0.5421178231907875 0.22350391560998917
000560 60 12 ed 87 35 3e db bf 68 6d 0a 8c d8 01 d5 3f
       -0.42567194246320206 0.32823766399243093
000570 68 35 2a a1 79 b4 de 3f 86 c8 66 48 7d f4 e4 bf
       0.47976532686955986 -0.654844895753073
000580 84 74 ce 6a 7a 54 ee 3f 18 f7 02 dd 0d af ce bf
       0.9478122793258454 -0.23971722880917734
000590 2a 6b 65 42 21 b3 e7 3f de 23 e1 60 ca 6f e0 bf
       0.7406164452362181 -0.5136463062455012
0005a0 96 9e 4b 1e 03 46 e5 bf 48 f5 97 ed bf 61 c8 bf
       -0.6647964088160332 -0.19048308469056452
0005b0 a8 f9 b0 97 d7 2a cc 3f b0 cb e4 12 df 78 eb 3f
       0.22005743891527385 0.8585048073785995
0005c0 50 52 1d 1f f5 09 c5 bf 56 bf c8 9a b3 d6 ea bf
       -0.1643663789679004 -0.838708689034301
0005d0 10 d7 3b 96 6c 92 e6 bf 7c 29 c2 55 cb 76 e1 3f
       -0.7053740438702523 0.5457512545556678
0005e0 68 fa 41 b1 2d 48 eb bf a0 1c d5 e5 18 9b cb bf
       -0.8525608503403648 -0.21567069265640715
0005f0 20 18 f4 58 e7 16 c1 3f 52 34 ce 08 43 3f ec 3f
       0.13351146548683435 0.8827223941785951
000600 48 ed 10 b4 45 5f d5 3f 9c ba a4 3c 98 08 d3 3f
       0.33393995842535107 0.2973995773526583
000610 44 8d dc 35 4e 66 e2 3f 74 66 a7 03 5f cd ea 3f
       0.5749884654982584 0.8375697203984616
000620 80 ce f2 1c 24 d3 97 bf 34 b5 25 97 b5 1a d9 3f
       -0.023266376749872197 0.3922552085922064
000630 c4 c4 cb 1b 52 80 d7 bf 2c e8 d9 78 f7 3b ef bf
       -0.36720707621050175 -0.9760701523184756
000640 0e 81 8a b5 dd 75 ef 3f e8 78 f1 bd fd 62 e8 3f
       0.983137945720985 0.7620838842229007
000650 c0 87 10 9c 49 2b e3 bf f6 32 b5 6b a3 20 e0 bf
       -0.5990341232429657 -0.5039841750782148
000660 4c aa 66 7c 41 39 d6 bf bc 1f fa 25 67 58 db 3f
       -0.34724461697138476 0.4272706862325284
000670 6a 3f 4a d2 8a bd ed 3f c2 c5 18 7e 88 fb e9 3f
       0.9293874842860366 0.811954733164548
000680 6a 91 59 cd e5 c0 e5 3f d8 12 1f 07 fd c5 ec 3f
       0.6797970782031773 0.8991685046281317
000690 04 d2 f5 fb e6 d0 e6 3f 0e 6f 3f 7b 58 0b ec 3f
       0.7130007668588978 0.8763849646743169
0006a0 d8 ad 0e e7 c4 25 ea 3f 14 7e 75 e5 0b d8 df bf
       0.8171104920233416 -0.4975614300546749
0006b0 36 33 98 8f 72 d0 ed 3f e0 ac 92 5f 29 f8 d8 3f
       0.9316952519016926 0.39014658292098936
0006c0 f0 18 e3 3b 50 d1 bf bf 5c fa 8f ec 3e fc e9 3f
       -0.1242876192291964 0.8120417232856414
0006d0 1c bb b1 3e 95 4b e5 bf 60 f3 5f 83 10 1b c3 3f
       -0.665476438951234 0.14926344313416973
0006e0 de 56 da e5 72 68 eb 3f c6 d6 e7 2f 4b 71 ee bf
       0.856500100070402 -0.9513297973305377
0006f0 82 e2 73 d5 5f 13 e7 bf 50 0b 5c a6 96 fc d6 bf
       -0.721115033054119 -0.35916677709626743
000700 60 35 11 71 0b d9 c5 bf 28 c0 a9 60 fb 63 e5 3f
       -0.1706861784063376 0.6684548271132416
000710 b0 1d 73 a0 a9 9e bb bf ec 19 bc f2 e0 9a d2 3f
       -0.10788974921444239 0.2907030458885902
000720 fe 1b 78 a5 d9 b8 eb bf a2 e6 7c 06 ce e6 e9 bf
       -0.8663147193736902 -0.8094244124142345
000730 de 85 3e e7 22 1c e5 bf da 58 60 3b 62 c6 e3 bf
       -0.6596846119393225 -0.617966762513585
000740 58 a0 6f d1 f9 b8 ca 3f c8 96 0d 23 37 bb e8 bf
       0.20877001501435433 -0.7728534397726543
000750 e0 e8 07 2f 64 94 ec 3f 5c 32 55 4f b6 c1 dd 3f
       0.8931141775676927 0.4649482512220737
000760 e0 54 f5 cc 1a 54 a4 bf 20 8d 68 44 e4 33 ae 3f
       -0.0397041678612966 0.05898965201438444
000770 98 a3 5c 41 53 7d d1 3f 70 30 35 56 ae fd da bf
       0.27327424414630164 -0.4217334596512563
000780 de 58 8b 0f 7e b9 e3 bf 08 4c 2e 30 30 5c e6 3f
       -0.6163931182479947 0.6987534466774159
000790 88 24 c2 57 fb a2 eb 3f 74 80 17 a7 41 df e6 3f
       0.863645240214411 0.714752985335521
0007a0 48 66 cf 8e de 2a c3 bf 18 12 7d 5b d3 e8 c0 3f
       -0.14974576924469063 0.1321052738877746
0007b0 50 58 c2 b3 d4 af be 3f 50 51 7c 4d 3e cd d2 3f
       0.11987046612407082 0.29377706114725743
0007c0 d0 3a 80 d3 2b ba b8 3f 78 f2 00 08 ba a1 d5 bf
       0.09659074700924042 -0.3379960134659892
0007d0 38 64 47 8e 4f 68 c0 3f c0 da 95 7c 96 88 e6 bf
       0.12818331191263765 -0.7041733201320639
0007e0 f8 cf ae c7 f3 95 d1 3f 28 f8 2a eb 1a 4e c9 bf
       0.27477735996512775 -0.19769608004384165
0007f0 20 e0 c5 1d 97 6f ce 3f 3c 01 0d e1 f5 38 ed bf
       0.23778046563870792 -0.9132031817935409
