data/4_class_bias.npy (npy, 537728 bytes, 1 tensors)

array f8 [8, 4, 21, 100]
00000000: 00db 5ced 588c 903f 803d 05a2 2e5b c83f
00000010: 92aa 9837 6c35 e4bf f42a 4aa3 799b dc3f
00000020: f001 c776 5fc1 b03f 808d 8f11 0e41 e9bf
00000030: 3c17 1f46 cffe e53f 381c 0884 dc86 e3bf
00000040: 7830 6b07 ec80 d93f 52c2 480f fee0 e13f
00000050: d26c 5788 f804 e13f b8d0 f682 7f62 e23f
00000060: 4628 3974 64ab e6bf 0036 b371 c9fb bb3f
00000070: 9494 5f10 2b28 e0bf 8886 4245 f7d4 e73f
00000080: 7001 8c6d f032 c6bf 10bd a129 3e8f ce3f
00000090: 2026 93ec 6d3a aa3f f6a9 77d4 e904 e9bf
000000a0: 208e 4a6e a9bb debf c016 4d08 df2f 9bbf
000000b0: d883 a724 42db e43f b047 e5ad 7d62 e83f
000000c0: aaab 386e dea9 e23f 4ce3 1231 106d ef3f
000000d0: 10e7 2099 b846 b83f 30c3 9ea6 5c9a bcbf
000000e0: e81b 758c 3634 c9bf 38b7 2630 cbcd cabf
000000f0: ee86 721a b842 e33f 1652 5b32 a49d eebf
00000100: dcd8 5820 de08 db3f 58b3 3868 30a8 e03f
00000110: b0c8 d3fe bb59 e33f 4057 1ac6 9264 babf
00000120: 002e b61b 2758 b5bf ac86 2214 930c ee3f
00000130: d466 4cd8 56e7 e43f 14b1 5581 2376 d1bf
00000140: 98d5 d137 af43 c9bf b098 a4e1 1091 d73f
00000150: dc57 e5c1 ab0f d23f 7a93 bd16 de7f e03f
00000160: 80bf 5e83 4fe9 e23f b82f 9a30 746d cd3f
00000170: c075 0661 9615 b73f 50a1 4c17 e4b3 cf3f
00000180: b4b5 bba3 e351 e8bf 2659 e284 535b ea3f
00000190: b8bb 676a a955 d93f 5a26 685c 17ab e83f
000001a0: 207c 7031 9118 b83f 5041 0d1a 3c9a b0bf
000001b0: 2246 9143 9be2 ec3f 7cc4 be80 7369 dcbf
000001c0: 3c01 fbc2 1297 e4bf 10eb 4340 87ef cabf
000001d0: 1e1c e216 25f6 e8bf c87e 281a e2df ce3f
000001e0: 9488 52ff 7d5a e13f 0019 0ecf 8134 eb3f
000001f0: 0092 85b2 b236 80bf c8fa 73a6 fc4d c83f
00000200: 8648 0aaa 9601 e33f 4028 83f7 c563 efbf
00000210: 168c 8e8f 18e0 e9bf 0c2c bfa5 9bdc d03f
00000220: 8c60 37d5 9228 d03f ec30 5e8c 4d9c dbbf
00000230: c0d9 c4d5 a9ca debf 700e 5274 ea86 c93f
00000240: 4e99 b209 e4ab e9bf b42b 0979 1be7 e1bf
00000250: 8050 555e b929 e73f 7014 3822 57b8 b2bf
00000260: 32d8 8310 7655 e9bf 4004 eab5 c13b c93f
00000270: fc97 599e 32a3 d13f a018 df80 20b7 cc3f
00000280: 4097 2b78 dc98 ef3f 4227 b48e fe8b eebf
00000290: f0fc 9c05 f17a babf 1656 8b6e 1cb2 ea3f
000002a0: 7cde fff7 6b77 ecbf 7c07 bdf3 72d0 e1bf
000002b0: 8e9c 531f dce3 e1bf 801e 2979 1e1d be3f
000002c0: 1205 2827 bc40 ed3f 34ac 1b4f 1ef8 e03f
000002d0: 1e14 6ea5 8f00 e8bf 0050 556d 07a4 583f
000002e0: ac0e 8416 5068 e83f a0b6 7d0a 5a18 a93f
000002f0: 389a 30ef b561 efbf 5ef6 9d3b 7d59 e43f
00000300: 2ead 02e1 7ace eebf 5026 5b57 6105 d8bf
00000310: 8440 c057 7e75 d7bf 5a33 11cc d18d e4bf
00000320: e48a 30ae 678a e53f f84b b173 7cb4 c5bf
00000330: 5cdd cde8 5480 dabf 4673 4119 691d e23f
00000340: f271 82a3 926c e4bf 1c2a ea63 cca5 edbf
00000350: dce2 b7b5 f8f4 d9bf 507a 6667 b1bf e43f
00000360: 40eb f900 e706 a7bf 8e8a 742d 1469 ea3f
00000370: c098 8332 9b50 b63f 4007 0c45 eb06 d6bf
00000380: 4686 e8a0 d1f1 eebf 60f4 c448 de66 e6bf
00000390: a8f4 bb39 6c57 c4bf 90f3 378a 053d d03f
000003a0: 60fc a5f2 36b8 e0bf b0b3 0281 2c6b bcbf
000003b0: 5082 ed02 1859 cc3f 6894 f4de 2b74 d23f
000003c0: d480 c6c9 82cd d6bf 60f3 32a5 09fd c5bf
000003d0: cec8 2bde f9be e9bf c0bb a53b 6ec6 9f3f
000003e0: 1099 9bb8 da00 c93f 38f0 0c5f 3a3b e73f
000003f0: d437 57c2 0ece e83f 74b6 2b9a 3bd3 ed3f
00000400: b6a8 6514 67ea e03f b20a ea4d f17b e33f
00000410: 404b bdbd c962 c9bf c034 9adf c279 a1bf
00000420: 064d 54e5 3ec9 e93f 60f9 83f4 01e5 a5bf
00000430: fcec e93d 9c53 e73f 74ad 22d7 3c38 d03f
00000440: 58be f2ad 17cf cdbf 5815 664f 27d1 cabf
00000450: 882e 20d0 0bef c73f e0cb c1ef 86d8 a43f
00000460: 002c 1484 8a1f 71bf 66f2 7468 36b7 e3bf
00000470: 5e40 bad5 c3dd e43f 4069 603d f39a af3f
00000480: f84b 648d 04a4 e63f c80a 9248 fae1 d13f
00000490: bce3 1387 1c0c dbbf a41f 3680 509f dc3f
000004a0: c806 8d71 71bf ef3f a014 5432 55dd e13f
000004b0: a833 faa3 a360 e23f 08fa 0e84 df30 ea3f
000004c0: 5ca6 a4a3 5582 eebf 382d bc73 692c d13f
000004d0: 10ad 01cc d566 b63f 306b 2aa5 d16d d23f
000004e0: 7466 ca7c d0f5 e2bf a04e a87d d5de bc3f
000004f0: 90ba 2924 d913 e53f 8a6e 8cf7 dc9a e8bf
00000500: c056 a6bf 0579 a9bf 8c57 beb0 d228 ddbf
00000510: b0a7 57ee 8d56 c5bf 60a6 7b51 37d3 ca3f
00000520: a6a8 c8ef 1a35 efbf f024 9015 0718 b03f
00000530: 002d e7dd fb81 ee3f 2cdc 0ec4 bab2 d9bf
00000540: fc04 c362 b366 e8bf 2891 8da1 d247 c13f
00000550: 8456 c048 1716 de3f 30ed f983 d2d4 ee3f
00000560: c0e1 a3b2 1c59 aabf 506a f38f 0ee9 b53f
00000570: a041 a579 048e e8bf 4ca1 856e f642 dfbf
00000580: 6643 2833 4d7d e7bf 602f e1c4 1d5d bc3f
00000590: 1c91 224b c8a1 d73f 428f 9c30 1e00 ec3f
000005a0: d8eb 50d9 2ea2 ed3f b0fb 4032 b283 c5bf
000005b0: 1004 6eac 804a b03f 7020 e9b4 5efc efbf
000005c0: 9e9c f663 0f07 e83f fe08 7e00 70c0 ed3f
000005d0: acb5 db7f 9362 dbbf 54cd b39e 76c3 db3f
000005e0: 9cad 4262 a472 d73f f077 d26c c2d0 cebf
000005f0: 6804 2f4c b1c3 c43f 70ca 9ec1 5375 e73f
00000600: 0ecd 7955 e5d7 e43f bed9 f768 e9ba e53f
00000610: fcb4 491e db39 d93f 3481 c0ca c6b8 d0bf
00000620: fe68 4477 c949 eabf e4c0 1727 78f8 d03f
00000630: 90f4 988a 3dca be3f ae30 2c72 5dc9 e6bf
00000640: 7a95 0276 39ef e53f 101f 5a72 558e dc3f
00000650: b05a be10 b2d1 e23f 00a1 082d 9694 ec3f
00000660: 9c59 5179 00a0 ea3f dc7a 9bb0 4f19 e8bf
00000670: 0061 089f bca9 78bf f41e 8ec0 dded dc3f
00000680: 2eca 407d c1d5 e43f ccda dc44 6e07 d33f
00000690: 0897 9b3e 57ee dabf c004 54a5 1bfb dd3f
000006a0: 52e9 4759 2743 ea3f 248d 6b26 8e80 dfbf
000006b0: da0c 1b5c b51a eb3f 3e88 2b49 677f eebf
000006c0: 5829 6fac b84d c33f c0f3 1bd7 7147 af3f
000006d0: 1ad9 4237 8141 e33f c0b7 5732 4e9a d23f
000006e0: 4cda 7f1b 7fe0 ddbf fe12 f29c f985 edbf
000006f0: 101b 6352 9402 b83f 087f 86a5 2867 e83f
00000700: 787c 8846 1614 dabf b8c9 ad14 091c ed3f
00000710: 443f fbaa afca da3f eea2 90b0 c083 e43f
00000720: e80b 7153 2923 ccbf 44ee f323 b653 dd3f
00000730: a8fe 3c9d ebd5 efbf 40b5 6e42 8763 c7bf
00000740: a078 94c1 d6c5 e13f c0e7 f806 8ae5 ef3f
00000750: a0ef ee3e bbee a73f 6010 f416 8259 d1bf
00000760: 60f9 244b 4a94 dc3f 1003 c0b7 299a bd3f
00000770: b80a a2b6 86b8 ce3f 1438 a0f7 4406 ef3f
00000780: f423 05a2 52a2 ef3f 18f4 97ee f600 e53f
00000790: ca51 d94f 0355 ef3f d05a 4128 8361 b4bf
000007a0: 20eb c3a2 59c7 bd3f a865 d567 9fda d5bf
000007b0: 468b 5064 2082 e2bf 50b0 ce98 4077 d1bf
000007c0: 5c58 cfc2 e861 d9bf 84b0 53aa 125b d43f
000007d0: 92cd be23 90fa ebbf 6822 7075 f943 cbbf
000007e0: 0090 4f27 0b61 6b3f 5e2a 6c95 6f7f e53f
000007f0: 1452 64c9 103e d0bf f098 4ae4 a230 d8bf
0.016160382735701084 0.1902826586833548 -0.6315213285318626 0.4469894499422218 0.06545063638532844 -0.789191278742166 0.6873546952781235 -0.6102125719779741
0.3984937736938785 0.5587148951072527 0.5318567908210758 0.5745236928837789 -0.7084219236360318 0.10931071306114148 -0.5049033469955639 0.7447468140346283
-0.17342954014749123 0.2387464240341406 0.051227030876884294 -0.7818497800593025 -0.4802039696753315 -0.02654980171361987 0.6517649379639989 0.762022819175618
0.5832359459649201 0.982063384864071 0.09482911814202688 -0.11173037593722479 -0.196905916769736 -0.20940532542356904 0.6018944279241774 -0.9567433341531479
0.4224162403001068 0.5205308948112402 0.6047039010138828 -0.10309712730881149 -0.08337635447076508 0.939034976316369 0.653239653070353 -0.2728356135401253
-0.19737806535310365 0.36822912249989326 0.28220647750037897 0.5156088298941619 0.5909802976438954 0.2299027669254181 0.09017314785747654 0.24767733705199158
-0.7599962423243398 0.8236482234376907 0.39585338011869053 0.770885162813282 0.09412486512199836 -0.06485343585996373 0.9026619262387536 -0.4439362294461444
-0.643441563435807 -0.21043482435182925 -0.7800469824732124 0.24120737340216736 0.5422964083447988 0.850159553913528 -0.007916828225185135 0.18987997176733118
0.5939439126107267 -0.9809293588853123 -0.8086054614872207 0.26346484361846545 0.25247641393571807 -0.4314149733334165 -0.4811195933902148 0.19942980460847393
-0.8022327603728543 -0.5594613422375603 0.723843273396156 -0.07312531075884166 -0.7916822741087854 0.19713612921262502 0.2755857988726118 0.224338591504595
0.9874098155093876 -0.9545891558820829 -0.10343843829194888 0.8342420729702009 -0.8895778506984722 -0.5566954384341751 -0.5590649234626583 0.11763182123206128
0.9141522183200854 0.530287889965058 -0.7500684958509998 0.001503951313982732 0.7627335014116929 0.04901391389908594 -0.9806775733639546 0.6359239735026667
-0.9627050776229333 -0.37532838374008737 -0.36654623574668954 -0.6423119531333257 0.6731451418057444 -0.16957049988795325 -0.4140827439764132 0.5660901540064536
-0.63825351653537 -0.9264890624484141 -0.4055768751709772 0.6484000224625763 -0.044974535817309036 0.8253270042226448 0.08716745360615885 -0.3441723036086053
-0.9670189039936268 -0.7000571652676051 -0.15891793078472927 0.25372446535021087 -0.522487138674375 -0.11101034307166802 0.2214689268394232 0.28834053776728874
-0.35629338936452126 -0.17178459707602212 -0.8045625056531891 0.03103039015826048 0.19533857358982987 0.7259799820381039 0.7751535220829688 0.9320352564952388
0.5286136053448647 0.6088797113191815 -0.1983272720777567 -0.034132089419566025 0.8058161238754173 -0.042762814615332045 0.7289563378575674 0.25343247422525583
-0.23288246148648528 -0.20950785996334775 0.1869826093901461 0.04071447064134026 -0.00418047054086923 -0.616114810960039 0.6520709204069239 0.06172905086733005
0.7075217019613538 0.2794175823875489 -0.4226142233961203 0.44722378273626817 0.9921195237913816 0.5582681639649714 0.574296779888404 0.8184659556644087
-0.9534099765925919 0.26833568861248436 0.0875066397726878 0.2879528153368254 -0.5925066411320601 0.11277517621811706 0.6586728769596721 -0.7689041933949323
-0.04975145306086182 -0.45561663875684455 -0.1667039312154066 0.20957080343878243 -0.9752325709607887 0.06286663319055541 0.9533671697658122 -0.40153378626149805
-0.7625367096844964 0.13500435722665682 0.4700983248197661 0.9634792878781919 -0.05146112137476022 0.08558741583275631 -0.767336118306094 -0.48846207421458554
-0.7340456008115381 0.11079584175712176 0.3692494138470168 0.8750143956608343 0.9260477299170544 -0.16808154538918307 0.06363681993208581 -0.999556878415218
0.7508618309410797 0.929740906678745 -0.427891611920894 0.43380513666416687 0.3663721999716587 -0.24074583352643186 0.16222206325440713 0.7330721646924996
0.6513544721077851 0.679066376701307 0.3941562457828949 -0.2612778644561502 -0.8215071992338208 0.26516536538748725 0.12027344354369718 -0.7120806913312856
0.6854522042164455 0.44618736426535666 0.588097603513992 0.8931380157055457 0.8320314759719625 -0.7530897569048096 -0.006021248628279574 0.45201820186819863
0.6510932394360844 0.2973285362708509 -0.42079716791191446 0.4684514154942683 0.8206974738853126 -0.4922213912197597 0.8470103072108046 -0.9530521802046292
0.15080936832084535 0.06109195471615392 0.601746185237775 0.29066805759691405 -0.4668271797703809 -0.9226043763488574 0.09378935824780066 0.7625926239888665
-0.4074760140228544 0.9096722988018007 0.4186209840527122 0.6410830925497899 -0.21982304167076383 0.4582343436338514 -0.9948633261737614 -0.182724864423486
0.5554002552851394 0.9967699180772271 0.04674325125912948 -0.2710881446985294 0.4465509160835577 0.11563359008870244 0.24000629346490654 0.9695153080408567
0.9885647930578885 0.6563677463560706 0.9791275558041488 -0.07961292012019361 0.11632309173357358 -0.34146866931913644 -0.5783845862646124 -0.272903584695773
-0.3966009046974983 0.3180586493824722 -0.8743363092566361 -0.21301191553381504 0.003342172416965994 0.6718061369331954 -0.2537881819455674 -0.37796852392274527
