data/5_class_bias.npy (npy, 588128 bytes, 1 tensors)

array f8 [7, 5, 21, 100]
00000000: bcb6 ee57 071c d5bf b89d a4bc f5b3 d5bf
00000010: 7aa6 c560 16e4 ef3f ea2f da0b 7369 ed3f
00000020: 121a 2d91 8f5e ed3f 54ac a62e 68b7 dcbf
00000030: 720e 1654 9cab eb3f 18f5 6138 204e d23f
00000040: 80af 6bce 6587 aa3f 38b5 a5b8 068c edbf
00000050: 2064 9a39 3bab cfbf c090 13cf ce67 cd3f
00000060: a075 dac0 3aa6 e93f ec20 4c91 37ee edbf
00000070: 3806 c251 da77 dd3f f05d c205 6035 bfbf
00000080: 80a7 da92 0dcd e3bf 88f5 6f28 3a75 e4bf
00000090: a891 9802 f8eb ed3f f0cf 88ee 8318 c0bf
000000a0: e077 9500 f2e2 e23f 7423 b58a 2e0b e73f
000000b0: a418 da07 eb0a eabf 8002 08d3 2862 c23f
000000c0: 48dc f485 fd50 d6bf 94fa 1a03 0b2f d83f
000000d0: b867 141d f9cc cdbf 641b 33cb ca1a e3bf
000000e0: f06a 556b d1f5 e73f d8e3 baf9 4962 c33f
000000f0: 96ae 9ca3 e61d e33f e028 4ee0 e684 bb3f
00000100: 74b6 d641 af55 d33f 7cbc aa8e 9dc8 d23f
00000110: e4a1 6e31 183c ecbf cecc c312 b104 eb3f
00000120: c05a 3ef2 14b7 973f deb5 f16f d0c1 eebf
00000130: d862 d5cd 14f8 c33f 6056 85b1 12c0 c33f
00000140: 8c59 d3c6 9655 ed3f 3054 c70b 3a10 d8bf
00000150: c0a3 851b 3d67 95bf 740b 417d 3d6c d8bf
00000160: fec0 e6a3 f8e3 ea3f ec3b 38d7 5020 eb3f
00000170: e0a8 81e6 d62f ccbf 9675 3043 2b7c e53f
00000180: 78f3 d64d 8f17 e5bf 8080 7d11 2674 e73f
00000190: 28be 82e4 c783 da3f 6c64 8a14 33ad e63f
000001a0: c04f 3cd5 652a dfbf deb8 2c61 ad14 ea3f
000001b0: 7c7b ab09 cdad dabf dc55 63b8 5a19 dabf
000001c0: c00b 8970 7304 e93f c0c0 aa23 bcdf bfbf
000001d0: 7021 bf01 5982 cb3f b824 55ce 417e e5bf
000001e0: b056 7a6b b429 c73f e01e af56 b470 b5bf
000001f0: 00b4 2a67 e950 5dbf e424 b4eb 3276 edbf
00000200: 062b 3cc8 0f1c eebf f2e3 43be 891e e93f
00000210: 608d 548f 4375 e0bf b022 a392 9d3b b03f
00000220: 9488 f121 48ad d13f b0b1 f868 c973 d23f
00000230: a0fd e494 06f4 d0bf 9002 9b6d 2e45 d0bf
00000240: 48d2 794a fef2 c6bf a0ab 86b8 d1f0 a6bf
00000250: 801f a0ec d03b ef3f ac13 cffe c55d dd3f
00000260: 4c4e d18f 66b0 debf 9061 172d 0d11 ecbf
00000270: fcdb 73d0 07fb e13f 3aad 929d b002 e9bf
00000280: c873 a70d 0023 c03f fe54 aa73 835b e43f
00000290: 049a d56c 0830 e0bf 38ec 8882 22f0 e3bf
000002a0: c01b 30a9 c03a a63f 6237 524b e294 e9bf
000002b0: b2f0 f69b 1ef7 e83f 601f 386f dd7c c93f
000002c0: e8a8 ac58 9aa4 c63f 00cb e56c cc06 d7bf
000002d0: 700f 8d1b 1fbf c4bf a8a8 4ca9 07b9 cdbf
000002e0: e8c2 ebc5 1ec5 d0bf 922d 3b2f 2c3b e23f
000002f0: 40f7 a7ac 6de1 b23f c040 ac43 3566 a83f
00000300: 107b 6257 a78b efbf fcff a5e3 7953 ef3f
00000310: 20fd 9cfc c8eb df3f 923f cc32 3c6b ecbf
00000320: 9ca2 60af 2ff4 dd3f 6882 7299 fcd1 c93f
00000330: f89e 95e8 f9ab d93f dcd2 5eea 2863 d9bf
00000340: b0be 326b 116b ec3f 4061 b3f6 24e1 a8bf
00000350: 106b 7689 39e6 cabf 5028 2524 01d4 de3f
00000360: 1c07 b30b ef4d debf 60a3 fe0d 56fe ddbf
00000370: ac21 9f7e fbb3 d9bf 1cd7 ac04 7e4d e93f
00000380: 0006 310e 8432 c4bf 8001 88c5 3dc8 c13f
00000390: 623a c008 9900 e43f 98b2 a2c6 0b67 ecbf
000003a0: c4d1 c604 b6f7 dc3f 0871 5513 c227 d93f
000003b0: a808 8809 2184 d63f cc46 31ce 1133 d83f
000003c0: 0024 cc20 9cf2 ce3f 18bc dd40 bf51 ec3f
000003d0: a097 5f55 7cf0 b1bf a4c2 a56c 1c56 ecbf
000003e0: 0e94 335d a172 e23f e489 6826 1991 ecbf
000003f0: 605f 55fe a093 ed3f 40a2 d6ff 1d05 afbf
00000400: 94a2 b9df 0bd5 e13f acc3 f693 a96c e5bf
00000410: e03d 92eb 6931 efbf 4ee6 53e2 9abb e23f
00000420: f0fb 0e01 0a69 b1bf b088 5496 ed89 e43f
00000430: 6676 2130 936d e83f 9ad0 fcd3 7307 e63f
00000440: b6f3 009d 6664 e9bf dc0a 85be 63a1 eebf
00000450: c0c2 0c14 9e97 b6bf 1060 3554 5517 ed3f
00000460: aee1 dd61 f145 e1bf acf0 c341 fe50 dabf
00000470: 4029 63fc f05c cabf d6dd aa30 7c8e e9bf
00000480: 4076 1079 cab8 d03f f475 e9d6 ed5e efbf
00000490: 6ccd a7cf 6286 ddbf 5295 d14f f86b e33f
000004a0: c81a 5da3 6cb7 cbbf 3069 2e79 cb59 d2bf
000004b0: 88b5 686a 678b e33f 845e 64cd 8a90 de3f
000004c0: 86f7 679c b4f2 e13f e2b4 9385 fd6b e33f
000004d0: 9a8c 27c1 1d1d e13f 6861 582f 502b e5bf
000004e0: 18b1 8255 6619 c9bf 66c2 8000 e937 e13f
000004f0: a4df 83df eb3e e23f 0caa 3e2f bc26 e83f
00000500: c8aa ad48 af73 d03f 66d6 a633 8ad6 e7bf
00000510: 5e2f 6b5a 1b54 e1bf f821 8370 73b4 c3bf
00000520: ec04 d937 b992 da3f 60ad b374 697b d63f
00000530: f0c5 5331 ddc8 d63f da39 5a09 7f0e e8bf
00000540: 286f 1340 c45e d1bf c0aa fdb0 2824 a93f
00000550: 64ad e556 22af e4bf 8083 0062 ae41 a73f
00000560: b064 4dba 53f3 c3bf 76dd fb97 9429 ecbf
00000570: 9212 2e75 a616 efbf 3c0d 2113 2828 e13f
00000580: e0b9 ef15 b28d aebf dcbd 190b 388f ec3f
00000590: ca10 cb09 a497 ef3f 720f 2cde 0ced ee3f
000005a0: e461 480a c362 dcbf 5890 5154 e1c0 cebf
000005b0: 3479 424b f008 e23f 809d b5b9 9200 9f3f
000005c0: c42a 8ca4 d509 d63f e894 90da 7c11 e1bf
000005d0: f494 c8a5 5917 e6bf f4f7 ce1f 78f0 d5bf
000005e0: be38 fbeb 9762 ebbf c08b a16a 4652 c4bf
000005f0: 0a8a 2ff9 7706 ee3f 0040 ac37 f221 acbf
00000600: 90fd 19f5 7b56 d6bf 54a2 4e09 7073 eb3f
00000610: 90eb 9ce7 ae9a e93f 5810 a919 3973 e23f
00000620: acfb 11d6 f384 e93f 7c91 7399 3842 d73f
00000630: c0fb 42bd 1287 c13f c663 3ae4 45b0 ecbf
00000640: ccd2 751b c107 e33f cc17 a5ee caf3 e7bf
00000650: 94de 3758 8b1b e8bf b041 190f 9794 cabf
00000660: e0d5 3833 4c5a e53f 24af 8d89 fa6f d1bf
00000670: 30ba c189 5ddc bb3f acbc 2c26 4e10 d13f
00000680: 488e 746a 6780 c33f 2240 d9f6 c7f4 ee3f
00000690: 023c 2ff8 6a54 e4bf 36db f102 2ddb e5bf
000006a0: 70ce 0c98 9f4d b73f 14c6 eafa 7f4d efbf
000006b0: 104e df0d 129a d0bf f83f 57ca 5e39 dd3f
000006c0: 4ceb 6ba5 9afb da3f f034 10db b717 e4bf
000006d0: 104a 85bf 9ea9 e63f 500f 0df9 ddc2 b4bf
000006e0: 8653 4410 72a0 e1bf 8866 7ada eeb5 e2bf
000006f0: 04b7 e742 7c48 d7bf 7e9a 699d a908 eebf
00000700: 6028 2865 950d c23f 78b4 2a5e dbdb e9bf
00000710: 6ccc a02e 79c0 e03f 54fa a25e 8491 d73f
00000720: 4061 3c3e 4196 b1bf be58 ea94 8b70 e63f
00000730: 00e3 3624 a7b5 bb3f 40a4 7dc1 27b1 aebf
00000740: 8410 c3a7 d4b3 d0bf c4dc f17b a8ce d03f
00000750: b806 f3b6 9b0e df3f aaa8 694d b42c eebf
00000760: 368a 0adb 7255 eb3f 1e4b 4bc3 93f6 e6bf
00000770: c41a 4382 15b5 d7bf 2a69 ad5b 5d5e eabf
00000780: 8a22 1bb2 c149 e93f ecee 1136 e59b d33f
00000790: 0647 f194 5b67 e6bf 924d 3c23 b129 e03f
000007a0: 7621 30b0 c41d e03f 7032 f34e 18c8 d3bf
000007b0: 0ae6 f2df f9be e03f f21e da0a e009 ef3f
000007c0: d0f2 e6da 4e39 e23f f823 55b4 e26a debf
000007d0: e0f7 030b 6aa7 c53f 08ff 3c6e 8eea e3bf
000007e0: b05a 9137 bf51 bb3f a207 5918 69f6 e8bf
000007f0: d803 8c13 d7db e43f 7ae9 30d9 5675 ed3f
-0.32983573519855347 -0.33910888120814375 0.99659270191951 0.9191222411623106 0.9177930675003287 -0.4486942725731684 0.8646985666568539 0.28601842409246236
0.05181425232680592 -0.9233430487053402 -0.24741306603098767 0.22973046408799824 0.8015416876475463 -0.9353292310561563 0.46044023498697895 -0.12190818920713986
-0.6187808864826678 -0.6393099584380915 0.93505478388811 -0.12574814936817758 0.5902032863048099 0.7201149663097639 -0.8138327744825529 0.14362058929693333
-0.34869325715721233 0.3778712778402362 -0.23281778259189223 -0.5970205277197747 0.7487570854530912 0.1514370412239987 0.5974000163600575 0.10749667144969832
0.3021047728496804 0.29349459583585946 -0.8823357549163657 0.8443227163792473 0.023159339223264963 -0.9611589609536926 0.15600833940950198 0.1542991034317991
0.9166978724777421 -0.37599040174729037 -0.020901636891185182 -0.3816064570602784 0.8403285218428491 0.84769479785052 -0.2202099442977845 0.6714073478976157
-0.6591259498887743 0.7329283086401261 0.41429326358317775 0.7086425210174077 -0.4869627554301097 0.815024080080345 -0.4168579668457182 -0.4077975083031029
0.7817933271365902 -0.12450767393852669 0.21491539559634587 -0.671662238114684 0.18096022842353454 -0.08375098339376619 -0.0017893103910566754 -0.9206785777652411
-0.9409254942741831 0.7849777904622199 -0.5143144416255545 0.06340966062556208 0.27620127978128406 0.288317062865441 -0.26489414730527905 -0.25422249511397244
-0.17929056774632302 -0.04480605485453926 0.97605177131571 0.4588484753006081 -0.47951664013564677 -0.8770814781847083 0.5618933745707859 -0.7815783574673454
0.12606812159256564 0.6361710795487452 -0.5058633924170981 -0.6230633306034923 0.04341699662477749 -0.7994243117443427 0.7801659628089708 0.19912307673097995
0.17689828233535043 -0.3597899497464567 -0.16208256573929303 -0.23220916525435098 -0.26203126266686505 0.5697232172473596 0.07375226464497775 0.047654785643432174
-0.9857975680095894 0.9789399572619 0.49876618069898093 -0.8880902282853518 0.4680289471312251 0.20172078602356014 0.4011215945561015 -0.396677235486363
0.888069829341438 -0.0485927153728789 -0.21015090190925223 0.4816897252063699 -0.47350669996750283 -0.4686484467188645 -0.40161025395766603 0.7907095042525927
-0.15779162114090184 0.13892337937432941 0.6250729723850095 -0.8875788573837609 0.45261908022373754 0.3930516423040591 0.35181451731490165 0.37811703811631214
0.24177886582791075 0.8849788920323389 -0.07007577022849754 -0.8855116006871708 0.5764929600087514 -0.8927121877825894 0.9242711036158475 -0.060585916023516706
0.5572566384917814 -0.6695144548340202 -0.9747819519997698 0.5854010029281171 -0.06800901914446889 0.6418369232308319 0.7633758487751947 0.68840972331829
-0.7935059610823518 -0.9572008820617515 -0.08825099935053071 0.9090983051964958 -0.5397879516086073 -0.41119343206788517 -0.20596134494400964 -0.7986432028328021
0.26127874205289814 -0.9803380200862066 -0.4613272693524866 0.6069299277266202 -0.21653516747229262 -0.286730640736681 0.6107670858670398 0.47757215555018484
0.5608771376425785 0.606932412045037 0.5348042271183602 -0.661537258597531 -0.19608763861959555 0.538074971182209 0.5701808324365527 0.7547284052610066
0.2570608339071154 -0.7449389466116372 -0.5415169492712086 -0.1539444255233915 0.41520529226188674 0.35128246685663633 0.3560097676955527 -0.7517695601143786
-0.2714090944043499 0.04910399590047154 -0.6463786790094841 0.04542298265756184 -0.15586325260918477 -0.8800757378038913 -0.971514920107966 0.5361519216170687
-0.059674801996027815 0.8924827782447511 0.9872608367227482 0.9664367999362027 -0.44352794651197613 -0.24026123635406083 0.563591143600013 0.030275623879246094
0.34435025281042564 -0.5333847302287298 -0.6903503644904547 -0.34280207735343926 -0.8557853325853768 -0.1587608357104653 0.9382896296413616 -0.054946488662722004
-0.3490285771913131 0.8578415090351634 0.8001322292033013 0.5765653134517477 0.7974795514163495 0.3634168146657186 0.1369346069459123 -0.8965177018718513
0.5946965729077305 -0.7485098515542119 -0.7533623431217671 -0.20765960919608295 0.6672726631574584 -0.272459635095162 0.10883125889970624 0.26662019470218
0.15235607812893392 0.9673805066358947 -0.6353049132684421 -0.6830048615946456 0.09102818929823697 -0.9782104397510829 -0.2594037185164959 0.4566266036972588
0.42160669474076395 -0.6278952864246587 0.7082055798185269 -0.08109843569132846 -0.5508356397354965 -0.5847086207533758 -0.36379915746407243 -0.9385574411833912
0.14103953780460454 -0.80808800117451 0.5234952841477827 0.36825665704592336 -0.06869895715170049 0.7012384327415686 0.10824055322781234 -0.05994533764789667
-0.26097599394803006 0.2626134119413559 0.48526661745209365 -0.9429570686309223 0.8541807439945106 -0.7175997557008917 -0.3704274913874708 -0.8240191259931511
0.7902534941323023 0.3063900974300242 -0.700116911795903 0.5050893486208443 0.5036338273212511 -0.30908782682380487 0.5233125089645807 0.9699554645494273
0.5694956088478538 -0.47527377710917973 0.16917157686105977 -0.6223823693362371 0.10671610933909892 -0.7800794101278721 0.6518359548355148 0.9205736391079846
